Deeplearning/HW3/softmax_best_model.pt (torch, 246571 bytes, 1 tensors)

W f8 [3073, 10]
000000 bf 39 27 18 70 df 89 3f d1 0c 63 21 6a cc 83 bf
       0.012633205163095405 -0.009667233604324118
000010 14 4a 31 e9 48 35 84 bf 03 a4 fe 3b b9 58 91 bf
       -0.00986725770613809 -0.01694001606634644
000020 d6 9b 38 ec ed 16 ab bf c3 56 6d a8 7d 03 8f bf
       -0.05290931232985201 -0.015143377020346965
000030 a3 10 87 83 3c c9 98 3f 25 0a 8b 42 20 a5 6b bf
       0.024205155875976058 -0.0033746366574132374
000040 52 ff 50 4b 70 68 b4 3f 14 88 fa 6f 66 ba 81 bf
       0.07971860731867977 -0.008656311313931332
000050 9c 6b aa e9 80 c0 82 bf ee 3c 53 c1 8b 7d 81 bf
       -0.009156233912383453 -0.008540241086306879
000060 ca d5 5c 89 87 f8 97 3f 62 e8 6f 31 58 af 57 3f
       0.023409002074193976 0.0014456139813306059
000070 88 21 ed 2a e8 36 5d bf e3 40 9e 1a 0a 90 a5 bf
       -0.001783110357523739 -0.04211455893448759
000080 ae f6 09 25 59 5d a3 3f 17 1f 71 b4 35 8d a0 bf
       0.03782156540999658 -0.032327345158192404
000090 11 7a d1 df 87 32 b0 3f a7 02 3f e1 d7 65 a0 bf
       0.06327103819192127 -0.03202700256907081
0000a0 62 36 44 f2 0a 2d 97 bf 25 d8 25 c6 1e 1a 67 3f
       -0.022632761990328716 0.002820072274682966
0000b0 c9 91 eb 7e 09 c7 a3 3f 13 57 43 59 0a 8f 67 3f
       0.03862790750807538 0.0028758241770486886
0000c0 63 48 e0 e7 dc fc 91 3f d2 c2 48 84 15 e9 a0 bf
       0.017566157963365813 -0.03302829017446175
0000d0 ef cb fa a9 32 3d 9a 3f c4 d3 0d 6c 87 fb 96 bf
       0.02562407648538206 -0.022443881960004367
0000e0 56 97 64 4d 54 00 a7 3f 23 71 ce 87 7b d1 ab bf
       0.04492438740480391 -0.05433259995263231
0000f0 51 65 1f fb 84 04 84 bf a6 66 c9 32 3f d8 4b bf
       -0.009774245179800774 -0.0008497532449595793
000100 2a 74 c0 6a 4b 84 96 3f 8e 07 c1 67 d8 73 77 bf
       0.021989038839923016 -0.005725713093910912
000110 ea 0f 91 d7 02 23 92 3f dc 5c f3 15 a1 e0 6e 3f
       0.017711681754249677 0.003769220944018421
000120 98 24 57 43 87 2f 68 3f 99 ca e6 43 45 8e 9a bf
       0.0029523507934966046 -0.025933344144230295
000130 8c 4c a8 95 b0 65 aa 3f 3c 7c b3 b6 af 84 ac bf
       0.051557081478812966 -0.05569981675375188
000140 2b 6d 77 57 6b 7f 7a 3f 5c 75 04 67 55 da 8b 3f
       0.006469172767050761 0.013600032049505266
000150 69 0d 96 56 08 36 74 3f 16 bb 41 8c e6 f9 8b bf
       0.004934341975402525 -0.013660241275116596
000160 7e d0 06 a1 5f 05 a2 3f 90 6e 0f 9f c2 06 90 3f
       0.035197246939248736 0.015650788267392246
000170 ec f0 08 5d 8b d3 8b bf 29 6a f2 39 e3 61 a0 bf
       -0.013587082649899128 -0.03199682314262404
000180 24 e3 ba a8 d2 9c a3 3f 21 13 04 21 65 1d ac bf
       0.03830583867733697 -0.054911766319526
000190 47 bd 45 17 a6 d3 83 3f c9 f5 71 4e 4d 1c 82 bf
       0.009681031785219075 -0.008843044239479252
0001a0 9f 35 f2 f8 11 5d 8f 3f f9 46 e8 60 80 ad 8d bf
       0.01531423607800769 -0.014491084058167557
0001b0 b9 d6 5d 12 96 28 8b 3f 77 2e ec 38 f0 f4 72 3f
       0.013261005816939219 0.004628122681207373
0001c0 64 d9 d5 b6 ed cc 71 3f ed cc b3 88 b5 b4 8a 3f
       0.004345825739952101 0.013039987787556185
0001d0 de 72 69 4e dd 91 9e 3f f0 e6 3d 16 36 19 b1 bf
       0.029853303824313275 -0.06679094355595416
0001e0 86 8b 32 c0 06 9e 60 bf a0 ca be 71 28 ce 78 bf
       -0.0020284778452874267 -0.006055982576003288
0001f0 00 10 b5 5c ae 87 97 3f 57 60 c1 be d4 28 66 bf
       0.022978519829180755 -0.0027050166300277944
000200 0f 6f 3c 76 5c 8c 76 3f 92 7d 1d 0f 79 0a 8a 3f
       0.0055049526015655955 0.012715287946490492
000210 ab 41 c5 ee a9 c3 5e 3f 86 1c ba 29 31 d8 5d bf
       0.0018777045725820545 -0.001821563730944027
000220 21 f9 8c 43 73 38 9d 3f c5 96 04 dd a6 35 ae bf
       0.02853565311237916 -0.05900308082554554
000230 2c 45 9e b4 82 59 8c bf 6f 4d 4a 99 15 a6 6a bf
       -0.013842602860480634 -0.003253023324143171
000240 51 0d e6 55 b2 38 9b 3f c7 d3 44 5e 70 a5 a0 3f
       0.026583467953526455 0.032512198932102936
000250 ad 4e fa bc 9f 88 79 3f 97 11 03 a7 67 66 47 bf
       0.006233810403177093 -0.0007141119113148073
000260 39 69 d5 6e 3a 1f 71 3f ab d0 1f 87 e9 9d a1 bf
       0.004180172208487592 -0.034407899613058866
000270 36 ab d1 ee 5e 08 a3 3f d1 0a 8a f1 de e2 ab bf
       0.037173239376747366 -0.05446526239849948
000280 82 43 b2 6c fc 87 91 bf 61 75 2c 9b b0 57 87 3f
       -0.017120308050440076 0.011397723899387814
000290 b0 76 9d 16 1d 85 6f 3f ea 87 a6 8f 8b e0 92 3f
       0.003847653210796796 0.0184346968104662
0002a0 a2 3b ab 6d cf d9 95 3f 8e f9 90 5e a5 bb 9d bf
       0.021338692730576654 -0.029036125084752444
0002b0 75 5d 6c b2 8e 30 a9 3f 3c b0 08 07 54 2f a8 bf
       0.049198588638485065 -0.0472360857569076
0002c0 b5 c6 6a 9c 70 2b 97 3f cd 18 b1 ae c2 1f a1 bf
       0.022626647517148785 -0.0334454382178123
0002d0 2c d2 2e 9f 2a 80 97 bf bb 18 c6 b0 d2 cf 92 3f
       -0.022949853864434086 0.018370906867425357
0002e0 c0 3e fc 81 cf 99 29 bf 7d d2 78 e7 b1 7c 8c 3f
       -0.00019531877568867116 0.013909711719955137
0002f0 1c e9 4a a2 24 a5 a2 3f a6 31 30 81 ba e1 54 bf
       0.03641619187460973 -0.0012745210012808732
000300 c1 f4 08 92 02 5b 9f 3f 98 71 21 6f 2b fd a4 bf
       0.03062061325384913 -0.04099403125357809
000310 dd 06 29 8c 3c 2e 8a 3f 0a 1f 0e 8f 8d e7 a7 bf
       0.012783501651145663 -0.046688483917988036
000320 22 8e 97 20 f9 b5 94 bf f9 af a9 1b 0f 96 71 bf
       -0.020225422491320207 -0.004293498054362737
000330 f3 2f 3b a5 60 21 49 bf dc fe b5 85 68 bf 87 3f
       -0.00076691836371756 0.011595551090749216
000340 e9 40 cb e0 cd d2 a0 3f 38 7d ba 83 cd de 97 3f
       0.03285830849711308 0.02331086269861979
000350 89 c4 5b 4c ea 18 94 3f 88 67 0d ea ad 0f a5 bf
       0.019626294050742153 -0.04113524896702275
000360 d0 8e b4 39 88 69 93 3f e5 c8 7c 08 25 71 a4 bf
       0.018957260629703765 -0.0399257252560277
000370 2d 96 05 5d 10 04 65 bf e9 94 68 99 10 64 49 3f
       -0.0025654143902780397 0.0007748681117091513
000380 94 10 b7 3f a2 de 73 3f ba a4 21 b9 02 45 a0 3f
       0.0048509919974472245 0.03177650937943484
000390 2c 96 0b 75 ea a9 86 3f 00 43 53 a0 6f 45 90 3f
       0.011066276261270401 0.01588987747237791
0003a0 43 d7 ff ab 04 72 7e bf a8 f0 95 0d 5e 20 97 bf
       -0.00743295502615188 -0.022584409312444237
0003b0 2d c0 4b ee e3 36 77 3f fe 4a 66 ec 2a 2c a3 bf
       0.005667581896645441 -0.03744634757744868
0003c0 76 ad e1 51 02 ea 84 bf c6 a2 02 31 5d 5d ae 3f
       -0.010211961864306156 0.059306061012937714
0003d0 d7 a9 75 42 61 d0 80 bf 66 1c 37 22 ba a6 98 3f
       -0.008209953156172496 0.024073513353667052
0003e0 3d 3e 3e 37 ff 57 74 3f 2c d8 67 aa e1 d2 4d bf
       0.004966732918446901 -0.0009101488001863659
0003f0 90 92 bb 01 91 99 84 bf 67 92 ed 21 d8 1a 97 bf
       -0.010058529725435222 -0.022563340254594524
000400 dc 9e 90 d8 a7 c7 82 bf a7 4c e5 48 ba df 9b bf
       -0.009169875427758205 -0.02722064084930467
000410 3e 8d 1f e5 f5 31 7f bf a9 6a cb 3d f4 9b a3 3f
       -0.007616005446809125 0.03829921011284416
000420 8d db 36 e6 09 98 82 3f 2e 58 0c 3f 03 ba 8e 3f
       0.009079053247530467 0.015003228532389636
000430 94 85 e0 0e e0 5f 79 3f 07 3e 77 87 39 03 86 bf
       0.0061949493665748485 -0.010748338171565853
000440 9d 8c b1 a3 44 86 99 3f d1 af 69 57 c0 7a a9 bf
       0.02492625474077369 -0.04976464335490472
000450 ce 85 c3 45 fb 06 69 bf 34 f3 08 5b 72 da 96 bf
       -0.0030550868669798397 -0.02231768303521449
000460 fd 7b 15 66 4a a0 89 bf 15 e8 8a c3 4f 7c 8c 3f
       -0.012512761345247364 0.013908980517374695
000470 82 1f 16 dd e1 53 99 3f f2 07 40 0a 9f d7 85 3f
       0.024734048003238758 0.010665171146687389
000480 c6 9f 16 d4 2b e4 96 3f b5 2a d2 08 29 f2 8e bf
       0.022354779071662077 -0.015110321599668944
000490 b4 30 84 c5 34 92 73 3f ae c2 e7 b2 97 42 a8 bf
       0.004778104914532278 -0.047383061017062786
0004a0 98 fc 51 b5 2a 21 5a 3f 19 8d 0d 32 79 c7 68 bf
       0.0015948216507977505 -0.0030248038387285067
0004b0 86 19 75 76 f0 58 90 bf 2d 5c cf 09 e1 ea 86 3f
       -0.0159642765331909 0.011190183746221017
0004c0 e6 e9 4a 87 40 a3 a9 3f 6b b6 5d 4d ef 8d 93 3f
       0.0500736394073618 0.019096125695276116
0004d0 01 82 d4 2e 3d 6f 99 3f 65 5d d3 3c 0f 4a 9f bf
       0.024838405593188288 -0.03055595215559261
0004e0 76 ed 20 dc b6 ba 99 bf 24 a5 d6 3f 3a 31 a4 bf
       -0.025126321015915797 -0.03943807629850429
0004f0 da ad ec 99 7b a7 90 3f 8d b3 74 79 dd 40 85 bf
       0.016263896245772937 -0.010377626675642815
000500 2a ec 75 cb 7b 5e 8f bf 47 d7 54 b1 ee 09 8a 3f
       -0.015316931864381617 0.012714257036900668
000510 de 95 ac b8 35 ca 9f 3f 13 a3 a1 6d 49 8f 84 3f
       0.031044806858650513 0.010038922937569283
000520 13 d5 01 89 1b 1a 9b 3f fa cf 36 0f 35 f6 a0 bf
       0.02646677993512465 -0.03312841234892967
000530 2d ca 58 61 e9 2f 91 bf cd 53 b3 e8 01 9b a0 bf
       -0.0167843309083741 -0.03243261304456944
000540 49 d7 c7 9e 59 da 96 3f 02 3f 38 3b e0 20 74 bf
       0.0223173144495015 -0.004914165404912076
000550 1d 35 df 53 aa 4f 81 bf 6b d3 4d a7 3d 58 72 3f
       -0.008452730831687344 0.004478684267145687
000560 1b 66 2a 16 38 93 7e 3f 47 db 92 ac 41 ac 68 bf
       0.007464617813320663 -0.0030118258187842614
000570 a1 10 79 4b 8c aa 9b 3f 3a 7c 8d 5e 8f 5e 8d bf
       0.02701777659082494 -0.01434051520635481
000580 f0 bf 77 89 bd c6 82 bf cf 03 40 4e 8c fb 9b bf
       -0.009168129689868437 -0.027326767230991863
000590 db 54 ec ac c6 2e 85 3f 8d 21 e0 d8 27 9c 8a 3f
       0.010343124534794182 0.01299315577127016
0005a0 f6 7f 85 30 d8 d8 91 bf c2 72 f4 64 25 4b 49 bf
       -0.017428758584514946 -0.0007718975629447888
0005b0 18 c3 ed 14 53 f0 9e bf 8f 6e 32 a2 f7 48 a2 3f
       -0.030213640358343147 0.035712946462095656
0005c0 aa 4d 1e e2 20 38 a0 3f da 43 2f ba a4 20 94 bf
       0.03167822609170952 -0.019655774940307548
0005d0 39 02 62 22 1e f7 8f 3f 9b 47 20 37 e5 3c 9a bf
       0.015608058380395128 -0.025622922410611797
0005e0 94 43 76 e5 0c c5 4c 3f 4c 47 de f8 9a 16 84 3f
       0.0008779824228658411 0.009808741302353895
0005f0 a9 11 db 7f 61 cd 9c bf d1 a2 42 19 a3 e7 80 3f
       -0.028127215794272385 0.008254312713988384
000600 c9 ef 59 e4 9b 09 97 bf e2 56 1b 6f ec 3e 9c 3f
       -0.02249759274717159 0.027583784371777116
000610 86 c1 1d 92 1e cd a3 3f 89 44 a8 aa c8 22 70 bf
       0.03867431195874631 -0.003939422468208006
000620 5c 8f 45 71 7b f4 80 3f 87 0e c7 06 cf 4f 8f bf
       0.00827881278446057 -0.015288941759428866
000630 0b b1 d2 77 cf dd 67 bf e0 76 51 27 94 86 84 bf
       -0.0029133846388359522 -0.010022313547036032
000640 80 97 e3 ec 3a 45 92 bf c0 82 f2 b5 97 fe 97 3f
       -0.017842217167433727 0.023432131271536205
000650 50 62 15 06 97 0e 70 bf 71 55 06 66 8a 9d 8f 3f
       -0.003920164047791788 0.01543720363478471
000660 2f b8 89 c8 4f 9c 99 3f 2c 4c 4c 28 24 71 81 3f
       0.025010344138017778 0.008516581039236547
000670 23 ac 8e bd bb 6c 2f bf 10 00 0c 0a 64 e4 a3 bf
       -0.00023975173715248916 -0.03885185835497407
000680 75 5f 25 a2 7b b0 88 3f b6 e2 5c b5 14 29 98 bf
       0.01205536449985776 -0.023594211167820865
000690 2d 78 89 d3 f7 8d 96 bf a8 bb c9 ea b4 fe 90 3f
       -0.02202594021434139 0.016596628980945077
0006a0 1f 9e 59 de 4a c6 89 3f af 5a ca 3a 72 ac 68 3f
       0.012585244093499757 0.0030119162605147447
0006b0 24 da e3 70 b9 d4 92 3f 6c e7 fb 02 94 18 9d 3f
       0.018389604106198956 0.028414070779923348
0006c0 32 9f 57 bd 62 19 90 bf c5 a1 cb d6 64 88 a1 bf
       -0.01572183876660844 -0.03424372789396871
0006d0 9f 30 78 1c 3a 69 9c 3f ec 91 88 43 8e ca a1 bf
       0.0277451591373824 -0.034748502487022964
0006e0 f6 7c a8 54 4c 60 90 bf 4c 45 a1 66 91 2c 7b 3f
       -0.015992348353504014 0.006634300205477683
0006f0 8d 8a b2 6e f8 dc 8d 3f 39 fa c3 13 53 de 96 3f
       0.014581623914925923 0.022332475739853506
000700 19 7c 5e c3 c5 8b 99 3f 1d df 29 fa 11 4c 91 3f
       0.024947252320654287 0.01689174737336351
000710 2f 43 21 de b0 f2 96 bf 8e 70 26 e4 23 a0 9c bf
       -0.022410167272315092 -0.02795463638322864
000720 ca b3 5e 9e 47 54 94 3f 86 cd d3 4b 26 e8 a3 bf
       0.019852751771100498 -0.03888053584696664
000730 f0 91 2c 2d e6 39 8d bf 6f 9d 76 74 85 76 a0 3f
       -0.014270590070347006 0.03215424582168224
000740 b2 46 24 d3 12 7a 77 3f c8 66 67 41 6b 21 b0 3f
       0.005731652769343109 0.06300993296408841
000750 a8 ac ca 0b 17 76 6e 3f 2e 63 08 75 09 ec 73 3f
       0.003718419086302289 0.0048637742443354125
000760 2a 01 36 8d 19 c6 8e bf 24 99 87 a9 ec 38 94 bf
       -0.015026282903591499 -0.019748399588842905
000770 a8 4c 96 9f 7c 7d 8f 3f ae 98 60 2d 46 68 b3 bf
       0.015376065845691692 -0.07580984695286716
000780 ae 51 f4 77 87 a8 93 bf 26 37 63 05 eb a1 96 3f
       -0.01919757527964954 0.02210204334624346
000790 7c 62 90 d0 75 5f 8e 3f 37 85 73 63 46 fa ae 3f
       0.014830513408058403 0.06050319637302908
0007a0 6f 40 8e 2a 19 84 88 bf de 75 c7 cf 89 d3 80 3f
       -0.011970707522579197 0.008215977338234145
0007b0 70 e9 95 68 0d 59 81 bf 47 e2 dc 03 50 79 66 bf
       -0.008470635179709446 -0.0027433932108602874
0007c0 52 46 ef 5b 82 e3 91 3f b3 16 cf 0d 3e ab b4 bf
       0.017469441281553984 -0.08073795163280799
0007d0 56 45 c5 58 6c 96 98 bf 99 df 62 75 70 dc 74 3f
       -0.024011319082381043 0.005093039790317188
0007e0 2c ad d8 b6 1b e7 06 3f 0e 33 85 d1 a7 96 ac 3f
       4.3683560630414876e-05 0.055836910558900596
0007f0 48 de 0e 1c 13 49 8f 3f 71 3b a9 a3 f7 9d 7e bf
       0.015276097577824235 -0.00747486814596142
