Deeplearning/HW3/svm_best_model.pt (torch, 246571 bytes, 1 tensors)

W f8 [3073, 10]
0	0x3f7411fb728be65e	0.004899961678114543
1	0x3f5ebc57c987101a	0.0018759591385881847
2	0xbf3c0793d9af98f1	-0.0004276977503522425
3	0xbf762ef6551bab99	-0.005415880428453778
4	0xbf93853f975ffdf7	-0.0190629898206662
5	0xbf869bc09e1e99dd	-0.011039261651444693
6	0x3f7b0effbfa7f9f1	0.006606101053419953
7	0xbf57b1aefd7908c2	-0.0014461716545075974
8	0x3f94944aa1cde18f	0.02009693729948619
9	0x3f7006776d0b61c8	0.003912416942249704
10	0x3f3931bf8be36ae6	0.0003844349520371451
11	0x3f720cef2246aeff	0.004406866184961221
12	0x3f80091c85d41b6e	0.007829878648875268
13	0x3f4f8ebfd3327870	0.000963061966462465
14	0xbf84b6f9a153dda5	-0.01011462234099165
15	0xbf95ca02befb2c09	-0.021278422266544115
16	0x3f81850951f3679b	0.008554528058471613
17	0xbf7c4512d171ceae	-0.006901811130876885
18	0x3f9102ab84a985b9	0.01661174771505156
19	0xbf3de814d786922a	-0.00045633801303271665
20	0xbf725f6feb2ca024	-0.0044855472395184705
21	0x3f75156c39def0cf	0.005147383459128642
22	0x3f8a1d9bf10d870a	0.012751787465905124
23	0x3f63b570494afff9	0.0024058526126680105
24	0xbf769ff0d6a4aaac	-0.005523625159450301
25	0xbf91f97d301e0081	-0.017553287565079238
26	0x3f81592c1f6eaf08	0.008470864018668603
27	0xbf7be4856e3b272b	-0.006809731686823454
28	0x3f8985bd18335eba	0.012462117482228908
29	0xbf7c1ed486e3a04f	-0.006865339453931154
30	0xbf67859fd2ce6cbe	-0.0028713342239377873
31	0x3f759460d61d6de0	0.0052684576674794925
32	0x3f821711c9f46037	0.008833064056077073
33	0x3f5bd0f1c134639c	0.001697765434818011
34	0xbf709946d87b6dc1	-0.004052426090960849
35	0xbf81bd10c75946c8	-0.008661395152702936
36	0x3f6583d090e9c556	0.002626330714797713
37	0xbf8167a5707fd4b0	-0.008498470779139872
38	0x3f8d674dcb00d939	0.0143571927620597
39	0xbf81d1da54a3074d	-0.008701043804083897
40	0x3f5806e0b177dae5	0.001466483523356815
41	0x3f7d40450059bb1e	0.0071413703313812065
42	0x3f709c99760f0317	0.004055594880754374
43	0x3f510360cf00d0e3	0.0010384030720276764
44	0xbf39eedf964b7b66	-0.00039570768994494907
45	0xbf7c0ca40145772c	-0.006847992557906395
46	0xbf56c98ad0fd7ee5	-0.0013908248547166932
47	0xbf84108df9893943	-0.009797200372443476
48	0x3f8b8db69430831f	0.013453890225777308
49	0xbf81dd7a296f8422	-0.008723215474619354
50	0x3f6b83af4eb9be43	0.0033586906409295582
51	0x3f51b028b106a8a4	0.001079597223091735
52	0x3f75fdddd5766018	0.0053690591224935455
53	0x3f515ba82880fd24	0.0010594503564929714
54	0xbf65295f44aa4747	-0.002583204336880227
55	0xbf7f2e6fd16acd3c	-0.007612644948199073
56	0x3f5fac6ff4658b0e	0.0019332021052710954
57	0xbf592c35620630f5	-0.0015364190404368293
58	0x3f8a0bce1b10853e	0.012717828942245487
59	0xbf8c3c09b2bb3450	-0.013786388174958614
60	0xbebecfc9c2309b00	-1.8365187848341162e-06
61	0x3f6bdeecca8b51f6	0.0034021973445794674
62	0x3f7aefa73514d9c8	0.0065762073075376695
63	0x3f75a0ecef76d852	0.005280423668798733
64	0xbf635081baf3970e	-0.002357724551631863
65	0xbf74c5c932a8fc40	-0.005071435860883489
66	0x3f2522fb2d656d9a	0.00016125980500701355
67	0xbf71afe125c6e036	-0.004318122370413893
68	0x3f85f3eb0506f8d2	0.010719143000525486
69	0xbf8d791f08b2039f	-0.014391176655637326
70	0xbf6e69316a8ce160	-0.0037122693214792085
71	0x3f729ab7c711c26f	0.0045420817196918225
72	0x3f7d47d3879de74b	0.007148577011202149
73	0x3f8e1b772c4fe38a	0.01470082382182782
74	0xbf5dfaa5bf29e634	-0.0018297785396995782
75	0xbf7b37f3a055baa2	-0.006645156541124438
76	0x3f561fe4f187846b	0.0013503776336778693
77	0xbf8973239fed95ff	-0.012426641767613765
78	0x3f86c407ce94dbe9	0.011116085998407814
79	0xbf8d2c038aefc226	-0.014244105985171517
80	0xbf6cf0079e8879ac	-0.0035324238599649584
81	0x3f7f56f63cad3b6b	0.007651292670586378
82	0x3f6e82f60fdcbbfd	0.0037245565316861282
83	0x3f8856f034970ef1	0.011884571652337668
84	0x3f3e054414fc25ac	0.0004580775466683461
85	0xbf846b07316e47e2	-0.009969764896400283
86	0x3f87cfcb11fbdb04	0.01162680290825114
87	0xbf9122b19e59a371	-0.016733908929754408
88	0x3f7d758e398e0a20	0.0071921878487750945
89	0xbf892fc98e5ec530	-0.012298178345960226
90	0xbf73cb3bf43f9403	-0.004832491107639394
91	0x3f825fc0d451aa89	0.00897169731088822
92	0x3f4158623093f73d	0.0005293349687744763
93	0x3f8596312c2f39ee	0.010540374909308672
94	0x3f7344802e2fca56	0.004703999237778497
95	0xbf654d79267d17c0	-0.0026004186837864374
96	0x3f845bc5a97b2dde	0.009940666422514729
97	0xbf8f5af874375c90	-0.015310231253279377
98	0x3f74e6b17cbc8a71	0.0051028187843110565
99	0xbf91749ebbf1c21e	-0.017046432706083185
100	0xbf75013aa91a4e32	-0.005128125326922682
101	0x3f7840429d1191b6	0.005920658311059082
102	0xbf5023a08dfbf387	-0.000985056678415948
103	0x3f8616f94dfa9042	0.010786006633971227
104	0x3f711ea5d591043b	0.0041796186351926124
105	0x3f783c17b534c905	0.005916683777558389
106	0x3f7bffbff441eb14	0.006835698910544936
107	0xbf9043da2c4a65f0	-0.015883835747990405
108	0x3f7376a07c5454a0	0.004751803300014817
109	0xbf90c93db7e8b902	-0.01639267382614041
110	0xbf59a555c4f8abc5	-0.0015652978507982734
111	0x3f77c56943c732ba	0.005803500357114794
112	0xbf2a63d5f0cbf783	-0.00020133959369411308
113	0x3f915a7b8d2a612e	0.01694672631364929
114	0xbf52c0bfecc73ab2	-0.0011445879236934684
115	0x3f73041590319919	0.004642566901657008
116	0xbf1f636e47d30021	-0.00011973724936620345
117	0xbf87974b2ed87f1f	-0.011519038550488468
118	0x3f605b4357c54174	0.001996642617236139
119	0xbf8e64fac3a0932c	-0.014841040701932671
120	0xbf6e52eac1347ae7	-0.0037016472866889696
121	0x3f92f44d230ed458	0.01851006056286439
122	0xbf6c5bbdbf0d279a	-0.003461714361411472
123	0x3f8f16c33b746b37	0.015180135013499558
124	0xbf706edee7df087d	-0.004011984563421331
125	0xbf53a74219d06c24	-0.0011995454326612165
126	0x3f19a89e312c5e10	9.788003471233203e-05
127	0xbf86b1533a2bfd0b	-0.011080408299220431
128	0xbef4497133547be3	-1.934707980410709e-05
129	0xbf851eb078f860a5	-0.010312441531866343
130	0xbf671fb4f8f89cd5	-0.0028227362270346426
131	0x3f9085b15fa6d5fb	0.016134997809521306
132	0x3f2887b9486d02b8	0.00018715035204232787
133	0x3f882d98c3930aac	0.011805718868690938
134	0xbf649768159a0e7d	-0.0025136025331578536
135	0xbf77b2791324e7a0	-0.00578543944203061
136	0x3f8114a615ecb949	0.008340165657128156
137	0xbf922d84ae2f1981	-0.017751763469072927
138	0x3f61f36fcc62e881	0.002191274982661418
139	0xbf840a4c49d3e1ab	-0.009785266879121254
140	0xbf746a5e50346e25	-0.004984253321960651
141	0x3f86564e94c2aade	0.01090680495720647
142	0x3f73df7cbe1f7d71	0.004851805950209496
143	0x3f882e5f15dff833	0.01180719647890891
144	0x3f7067957615c4ce	0.004005035241207723
145	0xbf7d870496ce79f4	-0.007208841253400145
146	0x3f54552d93ac3004	0.0012410111509693076
147	0xbf920e6835a48bb7	-0.017633083604902313
148	0x3f62e033f06b1e39	0.0023041738926144165
149	0xbf75a80be448498d	-0.005287214710295263
150	0xbf7c72d9ea62216a	-0.006945468170791317
151	0x3f801abbfc55269c	0.007863491666870552
152	0x3f87a2bc9434d1f0	0.0115408642510397
153	0x3f8e04e5bd7a91a5	0.014657778592046375
154	0x3f7a9e10cf17943d	0.006498399410223729
155	0xbf828d4a4126ec28	-0.009058551896364689
156	0xbf7a2c3ef9062cc2	-0.00638985251169827
157	0xbf90f3101c11d1d8	-0.016552211487992213
158	0x3f706bea9511ffcb	0.0040091670390438134
159	0xbf7708ca72ece075	-0.005623617950554762
160	0xbf80fa74c228d8b4	-0.008290207076339186
161	0x3f82b0aba9676c51	0.009126034838962268
162	0x3f7588ab04929909	0.005257289923213068
163	0x3f882c4306a3e27a	0.011803172721998257
164	0x3f76106eb0c86c51	0.005386764893525146
165	0xbf7e5cff027da005	-0.007412906772380272
166	0xbf6a901c4b40b9ed	-0.003242545377381881
167	0xbf8e0dfdee4a8158	-0.014675124964299499
168	0x3f7775456a5b0530	0.005727072862727042
169	0xbf6e1e4e2d662d10	-0.0036765601063898437
170	0xbf8092f43f3e38fd	-0.008092792682671485
171	0x3f77f5f4c21635c7	0.0058497963776864064
172	0xbf4b45ab38a297b3	-0.0008322797814528299
173	0x3f7908815c98ea13	0.006111626929448127
174	0x3f7522753f296ddb	0.005159814829848365
175	0xbf584074df2e8727	-0.0014802113844116312
176	0x3f554935b38bcd2c	0.0012991928508057733
177	0xbf88e51ec88a77ef	-0.012155762190840106
178	0x3f69e7d6a0f27da8	0.00316230697315208
179	0x3f500180fa8cbc66	0.000976921039363332
180	0xbf83fbc94dcb4980	-0.009757588087641933
181	0x3f6c20ad7654b5e7	0.0034335506376439342
182	0xbf82a27e12225ec5	-0.009098992279447224
183	0x3f912e3494ecfdc7	0.016777822103220232
184	0x3f737bf14a439fa3	0.0047568726915655805
185	0x3f1e09066503efd4	0.00011457540063369794
186	0x3f7c51a8b8305c00	0.006913813648700362
187	0xbf85c75162f5242b	-0.01063407500500276
188	0xbf43f85f61608ab6	-0.0006094423031338312
189	0xbf5f2257e9f489c4	-0.0019002779516276028
190	0xbf859b08deaff1ca	-0.010549611373783647
191	0x3f7ac92f376f74bf	0.006539520682932564
192	0xbf824177fc907e03	-0.008913934130815987
193	0x3f901a87b4e2ffc6	0.015726204314660007
194	0x3f795ed4171309fe	0.006193951108061755
195	0x3f5a49ec376ef0f7	0.001604538612567428
196	0x3f6e407b056c56d0	0.0036928560979373262
197	0xbf7a73971786e5fa	-0.00645789165758392
198	0xbf5601a25263c211	-0.001343163030068099
199	0xbf7a9689ec0d6192	-0.00649122119724445
200	0xbf7c8b5dffbefecb	-0.006968848403573434
201	0x3f83def153893a91	0.009702573167627267
202	0xbf7694ca8d4e9041	-0.005512992113754279
203	0x3f86088c361fdad1	0.01075849094557438
204	0x3f5ae47b002f0eb4	0.0016413880518805603
205	0x3f702f2856116f22	0.003951222956938756
206	0x3f5eaf5511101745	0.0018728571633359209
207	0xbf849ae279cb46f6	-0.010061044065341456
208	0x3f6dda2395045546	0.003644055839809343
209	0xbf827c29bfb349b1	-0.00902588478348751
210	0xbf84315327d29de1	-0.009859704640191093
211	0x3f858fd346573ad9	0.010528231224183159
212	0xbf551bf0d7d21a39	-0.0012883998854548286
213	0x3f8234d234060ef1	0.008889810764919544
214	0xbf4e22c2ac70cb4e	-0.0009196711115520924
215	0x3f813ef72fb87022	0.008420878547490022
216	0xbf6aca40490d40ad	-0.0032702689717681505
217	0xbf82d5892d3328e2	-0.009196349803819396
218	0x3f822b7cb43f2644	0.008872007609073702
219	0xbf88ef483a5d0b5e	-0.012175144463645256
220	0xbf83e556d733e48d	-0.009714773600068472
221	0x3f83a6394264c8c5	0.009594390238451553
222	0xbf2a527099c74dfc	-0.00020082115669471645
223	0x3f87c708a3736e97	0.011610095489621925
224	0xbf3407c520b95b13	-0.00030563891116257394
225	0x3f7690bff529edbb	0.005509137949612104
226	0xbf6cae2c576b2542	-0.0035010210079674817
227	0xbf805865990a9b01	-0.007981103642419553
228	0x3f7efd1dac16c4f9	0.007565608889693148
229	0xbf89c0b18ad697a6	-0.012574564980990587
230	0xbf8081eb62c6dcd2	-0.008060301734856532
231	0x3f84dd02253938a4	0.010187165032359786
232	0xbf5ccd83358fc07d	-0.0017579823818288092
233	0x3f96c33a6e0b5b46	0.022229111639570996
234	0xbf71c417f7545391	-0.004337400071808954
235	0x3f5aef65011ce369	0.0016439901705338161
236	0xbf721ee76066f4be	-0.0044240034243873665
237	0xbf72c41a650ef66e	-0.004581549744157349
238	0x3f7dec6b983489fa	0.00730554608461142
239	0xbf92a45d144d7cc5	-0.018205122341325337
240	0xbf7f6f862d1eefc9	-0.0076747170696158185
241	0x3f7bfe1bf77b0a9a	0.006834134335522402
242	0x3f48302d6f46641f	0.000738165078064349
243	0x3f970a67475137e5	0.022500623443470053
244	0xbf80d4903fe3c25a	-0.008217932653196747
245	0x3f30a7e101acdc9a	0.00025414698909593527
246	0xbf6c197bfd2e7067	-0.0034301206264455877
247	0x3eddc43c70cd6840	7.0968979003164915e-06
248	0x3f812ece727b0c61	0.008390057438537992
249	0xbf93ddd91bccd1dc	-0.019400970765859657
250	0xbf82e0cd63f0f5e9	-0.009217838871445632
251	0x3f751772fe9eb679	0.005149316022579614
252	0xbf609e092fa14d09	-0.0020284823813568925
253	0x3f95ef235c43e717	0.02142005205767025
254	0xbf6df6b738b2d316	-0.003657682280016404
255	0xbf7198692c860bcb	-0.004295740924478995
